…
print_freq: 40
rank: 0
resume: None
save_folder: Exp/ModelNet40/p2p_ConvNeXt-B-1k/result/best
save_freq: 1
save_path: None
scheduler: CosLR
start_epoch: 0
sync_bn: False
test_batch_size: 64
test_gpu: [0]
test_workers: 4
train_gpu: [0]
trans_dim: 8
update_type: norm
use_apex: False
use_normals: False
warmup_epochs: 0
weight: None
weight_decay: 0.05
workers: 16
world_size: 1
[2022-12-30 17:28:50,375 INFO test.py line 118 22515] => creating model ...
[2022-12-30 17:28:50,375 INFO test.py line 119 22515] Classes: 40
[2022-12-30 17:28:50,375 INFO test.py line 120 22515] P2P(
  (enc): ProjEnc(
    (input_trans): Conv1d(3, 8, kernel_size=(1,), stride=(1,))
    (graph_layer): Sequential(
      (0): Conv2d(16, 64, kernel_size=(1, 1), stride=(1, 1), bias=False)
      (1): GroupNorm(4, 64, eps=1e-05, affine=True)
      (2): LeakyReLU(negative_slope=0.2)
    )
    (proj_layer): Conv1d(64, 64, kernel_size=(1,), stride=(1,))
    (img_block): Sequential(
      (0): BasicBlock(
        (conv1): Conv2d(64, 64, kernel_size=(3, 3), stride=(1, 1), padding=(1, 1), bias=False)
        (bn1): BatchNorm2d(64, eps=1e-05, momentum=0.1, affine=True, track_running_stats=True)
        (act1): ReLU(inplace=True)
        (conv2): Conv2d(64, 64, kernel_size=(3, 3), stride=(1, 1), padding=(1, 1), bias=False)
        (bn2): BatchNorm2d(64, eps=1e-05, momentum=0.1, affine=True, track_running_stats=True)
        (act2): ReLU(inplace=True)
      )
      (1): Conv2d(64, 64, kernel_size=(1, 1), stride=(1, 1))
    )
    (img_layer): Conv2d(64, 3, kernel_size=(1, 1), stride=(1, 1))
  )
  (base_model): ConvNeXt(
    (stem): Sequential(
      (0): Conv2d(3, 128, kernel_size=(4, 4), stride=(4, 4))
      (1): LayerNorm2d((128,), eps=1e-06, elementwise_affine=True)
    )
    (stages): Sequential(
      (0): ConvNeXtStage(
        (downsample): Identity()
        (blocks): Sequential(
          (0): ConvNeXtBlock(
            (conv_dw): Conv2d(128, 128, kernel_size=(7, 7), stride=(1, 1), padding=(3, 3), groups=128)
            (norm): LayerNorm((128,), eps=1e-06, elementwise_affine=True)
            (mlp): Mlp(
              (fc1): Linear(in_features=128, out_features=512, bias=True)
              (act): GELU()
              (drop1): Dropout(p=0.0, inplace=False)
              (fc2): Linear(in_features=512, out_features=128, bias=True)
              (drop2): Dropout(p=0.0, inplace=False)
            )
            (drop_path): Identity()
          )
          (1): ConvNeXtBlock(
            (conv_dw): Conv2d(128, 128, kernel_size=(7, 7), stride=(1, 1), padding=(3, 3), groups=128)
            (norm): LayerNorm((128,), eps=1e-06, elementwise_affine=True)
            (mlp): Mlp(
              (fc1): Linear(in_features=128, out_features=512, bias=True)
              (act): GELU()
              (drop1): Dropout(p=0.0, inplace=False)
              (fc2): Linear(in_features=512, out_features=128, bias=True)
              (drop2): Dropout(p=0.0, inplace=False)
            )
            (drop_path): Identity()
          )
          (2): ConvNeXtBlock(
            (conv_dw): Conv2d(128, 128, kernel_size=(7, 7), stride=(1, 1), padding=(3, 3), groups=128)
            (norm): LayerNorm((128,), eps=1e-06, elementwise_affine=True)
            (mlp): Mlp(
              (fc1): Linear(in_features=128, out_features=512, bias=True)
              (act): GELU()
              (drop1): Dropout(p=0.0, inplace=False)
              (fc2): Linear(in_features=512, out_features=128, bias=True)
              (drop2): Dropout(p=0.0, inplace=False)
            )
            (drop_path): Identity()
          )
        )
      )
      (1): ConvNeXtStage(
        (downsample): Sequential(
          (0): LayerNorm2d((128,), eps=1e-06, elementwise_affine=True)
          (1): Conv2d(128, 256, kernel_size=(2, 2), stride=(2, 2))
        )
        (blocks): Sequential(
          (0): ConvNeXtBlock(
            (conv_dw): Conv2d(256, 256, kernel_size=(7, 7), stride=(1, 1), padding=(3, 3), groups=256)
            (norm): LayerNorm((256,), eps=1e-06, elementwise_affine=True)
            (mlp): Mlp(
              (fc1): Linear(in_features=256, out_features=1024, bias=True)
              (act): GELU()
              (drop1): Dropout(p=0.0, inplace=False)
              (fc2): Linear(in_features=1024, out_features=256, bias=True)
              (drop2): Dropout(p=0.0, inplace=False)
            )
            (drop_path): Identity()
          )
          (1): ConvNeXtBlock(
            (conv_dw): Conv2d(256, 256, kernel_size=(7, 7), stride=(1, 1), padding=(3, 3), groups=256)
            (norm): LayerNorm((256,), eps=1e-06, elementwise_affine=True)
            (mlp): Mlp(
              (fc1): Linear(in_features=256, out_features=1024, bias=True)
              (act): GELU()
              (drop1): Dropout(p=0.0, inplace=False)
              (fc2): Linear(in_features=1024, out_features=256, bias=True)
              (drop2): Dropout(p=0.0, inplace=False)
            )
            (drop_path): Identity()
          )
          (2): ConvNeXtBlock(
            (conv_dw): Conv2d(256, 256, kernel_size=(7, 7), stride=(1, 1), padding=(3, 3), groups=256)
            (norm): LayerNorm((256,), eps=1e-06, elementwise_affine=True)
            (mlp): Mlp(
              (fc1): Linear(in_features=256, out_features=1024, bias=True)
              (act): GELU()
              (drop1): Dropout(p=0.0, inplace=False)
              (fc2): Linear(in_features=1024, out_features=256, bias=True)
              (drop2): Dropout(p=0.0, inplace=False)
            )
            (drop_path): Identity()
          )
        )
      )
      (2): ConvNeXtStage(
        (downsample): Sequential(
          (0): LayerNorm2d((256,), eps=1e-06, elementwise_affine=True)
          (1): Conv2d(256, 512, kernel_size=(2, 2), stride=(2, 2))
        )
        (blocks): Sequential(
          (0): ConvNeXtBlock(
            (conv_dw): Conv2d(512, 512, kernel_size=(7, 7), stride=(1, 1), padding=(3, 3), groups=512)
            (norm): LayerNorm((512,), eps=1e-06, elementwise_affine=True)
            (mlp): Mlp(
              (fc1): Linear(in_features=512, out_features=2048, bias=True)
              (act): GELU()
              (drop1): Dropout(p=0.0, inplace=False)
              (fc2): Linear(in_features=2048, out_features=512, bias=True)
              (drop2): Dropout(p=0.0, inplace=False)
            )
            (drop_path): Identity()
          )
          (1): ConvNeXtBlock(
            (conv_dw): Conv2d(512, 512, kernel_size=(7, 7), stride=(1, 1), padding=(3, 3), groups=512)
            (norm): LayerNorm((512,), eps=1e-06, elementwise_affine=True)
            (mlp): Mlp(
              (fc1): Linear(in_features=512, out_features=2048, bias=True)
              (act): GELU()
              (drop1): Dropout(p=0.0, inplace=False)
              (fc2): Linear(in_features=2048, out_features=512, bias=True)
              (drop2): Dropout(p=0.0, inplace=False)
            )
            (drop_path): Identity()
          )
          (2): ConvNeXtBlock(
            (conv_dw): Conv2d(512, 512, kernel_size=(7, 7), stride=(1, 1), padding=(3, 3), groups=512)
            (norm): LayerNorm((512,), eps=1e-06, elementwise_affine=True)
            (mlp): Mlp(
              (fc1): Linear(in_features=512, out_features=2048, bias=True)
              (act): GELU()
              (drop1): Dropout(p=0.0, inplace=False)
              (fc2): Linear(in_features=2048, out_features=512, bias=True)
              (drop2): Dropout(p=0.0, inplace=False)
            )
            (drop_path): Identity()
          )
          (3): ConvNeXtBlock(
            (conv_dw): Conv2d(512, 512, kernel_size=(7, 7), stride=(1, 1), padding=(3, 3), groups=512)
            (norm): LayerNorm((512,), eps=1e-06, elementwise_affine=True)
            (mlp): Mlp(
              (fc1): Linear(in_features=512, out_features=2048, bias=True)
              (act): GELU()
              (drop1): Dropout(p=0.0, inplace=False)
              (fc2): Linear(in_features=2048, out_features=512, bias=True)
              (drop2): Dropout(p=0.0, inplace=False)
            )
            (drop_path): Identity()
          )
          (4): ConvNeXtBlock(
            (conv_dw): Conv2d(512, 512, kernel_size=(7, 7), stride=(1, 1), padding=(3, 3), groups=512)
            (norm): LayerNorm((512,), eps=1e-06, elementwise_affine=True)
            (mlp): Mlp(
              (fc1): Linear(in_features=512, out_features=2048, bias=True)
              (act): GELU()
              (drop1): Dropout(p=0.0, inplace=False)
              (fc2): Linear(in_features=2048, out_features=512, bias=True)
              (drop2): Dropout(p=0.0, inplace=False)
            )
            (drop_path): Identity()
          )
          (5): ConvNeXtBlock(
            (conv_dw): Conv2d(512, 512, kernel_size=(7, 7), stride=(1, 1), padding=(3, 3), groups=512)
            (norm): LayerNorm((512,), eps=1e-06, elementwise_affine=True)
            (mlp): Mlp(
              (fc1): Linear(in_features=512, out_features=2048, bias=True)
              (act): GELU()
              (drop1): Dropout(p=0.0, inplace=False)
              (fc2): Linear(in_features=2048, out_features=512, bias=True)
              (drop2): Dropout(p=0.0, inplace=False)
            )
            (drop_path): Identity()
          )
          (6): ConvNeXtBlock(
            (conv_dw): Conv2d(512, 512, kernel_size=(7, 7), stride=(1, 1), padding=(3, 3), groups=512)
            (norm): LayerNorm((512,), eps=1e-06, elementwise_affine=True)
            (mlp): Mlp(
              (fc1): Linear(in_features=512, out_features=2048, bias=True)
              (act): GELU()
              (drop1): Dropout(p=0.0, inplace=False)
              (fc2): Linear(in_features=2048, out_features=512, bias=True)
              (drop2): Dropout(p=0.0, inplace=False)
            )
            (drop_path): Identity()
          )
          (7): ConvNeXtBlock(
            (conv_dw): Conv2d(512, 512, kernel_size=(7, 7), stride=(1, 1), padding=(3, 3), groups=512)
            (norm): LayerNorm((512,), eps=1e-06, elementwise_affine=True)
            (mlp): Mlp(
              (fc1): Linear(in_features=512, out_features=2048, bias=True)
              (act): GELU()
              (drop1): Dropout(p=0.0, inplace=False)
              (fc2): Linear(in_features=2048, out_features=512, bias=True)
              (drop2): Dropout(p=0.0, inplace=False)
            )
            (drop_path): Identity()
          )
          (8): ConvNeXtBlock(
            (conv_dw): Conv2d(512, 512, kernel_size=(7, 7), stride=(1, 1), padding=(3, 3), groups=512)
            (norm): LayerNorm((512,), eps=1e-06, elementwise_affine=True)
            (mlp): Mlp(
              (fc1): Linear(in_features=512, out_features=2048, bias=True)
              (act): GELU()
              (drop1): Dropout(p=0.0, inplace=False)
              (fc2): Linear(in_features=2048, out_features=512, bias=True)
              (drop2): Dropout(p=0.0, inplace=False)
            )
            (drop_path): Identity()
          )
          (9): ConvNeXtBlock(
            (conv_dw): Conv2d(512, 512, kernel_size=(7, 7), stride=(1, 1), padding=(3, 3), groups=512)
            (norm): LayerNorm((512,), eps=1e-06, elementwise_affine=True)
            (mlp): Mlp(
              (fc1): Linear(in_features=512, out_features=2048, bias=True)
              (act): GELU()
              (drop1): Dropout(p=0.0, inplace=False)
              (fc2): Linear(in_features=2048, out_features=512, bias=True)
              (drop2): Dropout(p=0.0, inplace=False)
            )
            (drop_path): Identity()
          )
          (10): ConvNeXtBlock(
            (conv_dw): Conv2d(512, 512, kernel_size=(7, 7), stride=(1, 1), padding=(3, 3), groups=512)
            (norm): LayerNorm((512,), eps=1e-06, elementwise_affine=True)
            (mlp): Mlp(
              (fc1): Linear(in_features=512, out_features=2048, bias=True)
              (act): GELU()
              (drop1): Dropout(p=0.0, inplace=False)
              (fc2): Linear(in_features=2048, out_features=512, bias=True)
              (drop2): Dropout(p=0.0, inplace=False)
            )
            (drop_path): Identity()
          )
          (11): ConvNeXtBlock(
            (conv_dw): Conv2d(512, 512, kernel_size=(7, 7), stride=(1, 1), padding=(3, 3), groups=512)
            (norm): LayerNorm((512,), eps=1e-06, elementwise_affine=True)
            (mlp): Mlp(
              (fc1): Linear(in_features=512, out_features=2048, bias=True)
              (act): GELU()
              (drop1): Dropout(p=0.0, inplace=False)
              (fc2): Linear(in_features=2048, out_features=512, bias=True)
              (drop2): Dropout(p=0.0, inplace=False)
            )
            (drop_path): Identity()
          )
          (12): ConvNeXtBlock(
            (conv_dw): Conv2d(512, 512, kernel_size=(7, 7), stride=(1, 1), padding=(3, 3), groups=512)
            (norm): LayerNorm((512,), eps=1e-06, elementwise_affine=True)
            (mlp): Mlp(
              (fc1): Linear(in_features=512, out_features=2048, bias=True)
              (act): GELU()
              (drop1): Dropout(p=0.0, inplace=False)
              (fc2): Linear(in_features=2048, out_features=512, bias=True)
              (drop2): Dropout(p=0.0, inplace=False)
            )
            (drop_path): Identity()
          )
          (13): ConvNeXtBlock(
            (conv_dw): Conv2d(512, 512, kernel_size=(7, 7), stride=(1, 1), padding=(3, 3), groups=512)
            (norm): LayerNorm((512,), eps=1e-06, elementwise_affine=True)
            (mlp): Mlp(
              (fc1): Linear(in_features=512, out_features=2048, bias=True)
              (act): GELU()
              (drop1): Dropout(p=0.0, inplace=False)
              (fc2): Linear(in_features=2048, out_features=512, bias=True)
              (drop2): Dropout(p=0.0, inplace=False)
            )
            (drop_path): Identity()
          )
          (14): ConvNeXtBlock(
            (conv_dw): Conv2d(512, 512, kernel_size=(7, 7), stride=(1, 1), padding=(3, 3), groups=512)
            (norm): LayerNorm((512,), eps=1e-06, elementwise_affine=True)
            (mlp): Mlp(
              (fc1): Linear(in_features=512, out_features=2048, bias=True)
              (act): GELU()
              (drop1): Dropout(p=0.0, inplace=False)
              (fc2): Linear(in_features=2048, out_features=512, bias=True)
              (drop2): Dropout(p=0.0, inplace=False)
            )
            (drop_path): Identity()
          )
          (15): ConvNeXtBlock(
            (conv_dw): Conv2d(512, 512, kernel_size=(7, 7), stride=(1, 1), padding=(3, 3), groups=512)
            (norm): LayerNorm((512,), eps=1e-06, elementwise_affine=True)
            (mlp): Mlp(
              (fc1): Linear(in_features=512, out_features=2048, bias=True)
              (act): GELU()
              (drop1): Dropout(p=0.0, inplace=False)
              (fc2): Linear(in_features=2048, out_features=512, bias=True)
              (drop2): Dropout(p=0.0, inplace=False)
            )
            (drop_path): Identity()
          )
          (16): ConvNeXtBlock(
            (conv_dw): Conv2d(512, 512, kernel_size=(7, 7), stride=(1, 1), padding=(3, 3), groups=512)
            (norm): LayerNorm((512,), eps=1e-06, elementwise_affine=True)
            (mlp): Mlp(
              (fc1): Linear(in_features=512, out_features=2048, bias=True)
              (act): GELU()
              (drop1): Dropout(p=0.0, inplace=False)
              (fc2): Linear(in_features=2048, out_features=512, bias=True)
              (drop2): Dropout(p=0.0, inplace=False)
            )
            (drop_path): Identity()
          )
          (17): ConvNeXtBlock(
            (conv_dw): Conv2d(512, 512, kernel_size=(7, 7), stride=(1, 1), padding=(3, 3), groups=512)
            (norm): LayerNorm((512,), eps=1e-06, elementwise_affine=True)
            (mlp): Mlp(
              (fc1): Linear(in_features=512, out_features=2048, bias=True)
              (act): GELU()
              (drop1): Dropout(p=0.0, inplace=False)
              (fc2): Linear(in_features=2048, out_features=512, bias=True)
              (drop2): Dropout(p=0.0, inplace=False)
            )
            (drop_path): Identity()
          )
          (18): ConvNeXtBlock(
            (conv_dw): Conv2d(512, 512, kernel_size=(7, 7), stride=(1, 1), padding=(3, 3), groups=512)
            (norm): LayerNorm((512,), eps=1e-06, elementwise_affine=True)
            (mlp): Mlp(
              (fc1): Linear(in_features=512, out_features=2048, bias=True)
              (act): GELU()
              (drop1): Dropout(p=0.0, inplace=False)
              (fc2): Linear(in_features=2048, out_features=512, bias=True)
              (drop2): Dropout(p=0.0, inplace=False)
            )
            (drop_path): Identity()
          )
          (19): ConvNeXtBlock(
            (conv_dw): Conv2d(512, 512, kernel_size=(7, 7), stride=(1, 1), padding=(3, 3), groups=512)
            (norm): LayerNorm((512,), eps=1e-06, elementwise_affine=True)
            (mlp): Mlp(
              (fc1): Linear(in_features=512, out_features=2048, bias=True)
              (act): GELU()
              (drop1): Dropout(p=0.0, inplace=False)
              (fc2): Linear(in_features=2048, out_features=512, bias=True)
              (drop2): Dropout(p=0.0, inplace=False)
            )
            (drop_path): Identity()
          )
          (20): ConvNeXtBlock(
            (conv_dw): Conv2d(512, 512, kernel_size=(7, 7), stride=(1, 1), padding=(3, 3), groups=512)
            (norm): LayerNorm((512,), eps=1e-06, elementwise_affine=True)
            (mlp): Mlp(
              (fc1): Linear(in_features=512, out_features=2048, bias=True)
              (act): GELU()
              (drop1): Dropout(p=0.0, inplace=False)
              (fc2): Linear(in_features=2048, out_features=512, bias=True)
              (drop2): Dropout(p=0.0, inplace=False)
            )
            (drop_path): Identity()
          )
          (21): ConvNeXtBlock(
            (conv_dw): Conv2d(512, 512, kernel_size=(7, 7), stride=(1, 1), padding=(3, 3), groups=512)
            (norm): LayerNorm((512,), eps=1e-06, elementwise_affine=True)
            (mlp): Mlp(
              (fc1): Linear(in_features=512, out_features=2048, bias=True)
              (act): GELU()
              (drop1): Dropout(p=0.0, inplace=False)
              (fc2): Linear(in_features=2048, out_features=512, bias=True)
              (drop2): Dropout(p=0.0, inplace=False)
            )
            (drop_path): Identity()
          )
          (22): ConvNeXtBlock(
            (conv_dw): Conv2d(512, 512, kernel_size=(7, 7), stride=(1, 1), padding=(3, 3), groups=512)
            (norm): LayerNorm((512,), eps=1e-06, elementwise_affine=True)
            (mlp): Mlp(
              (fc1): Linear(in_features=512, out_features=2048, bias=True)
              (act): GELU()
              (drop1): Dropout(p=0.0, inplace=False)
              (fc2): Linear(in_features=2048, out_features=512, bias=True)
              (drop2): Dropout(p=0.0, inplace=False)
            )
            (drop_path): Identity()
          )
          (23): ConvNeXtBlock(
            (conv_dw): Conv2d(512, 512, kernel_size=(7, 7), stride=(1, 1), padding=(3, 3), groups=512)
            (norm): LayerNorm((512,), eps=1e-06, elementwise_affine=True)
            (mlp): Mlp(
              (fc1): Linear(in_features=512, out_features=2048, bias=True)
              (act): GELU()
              (drop1): Dropout(p=0.0, inplace=False)
              (fc2): Linear(in_features=2048, out_features=512, bias=True)
              (drop2): Dropout(p=0.0, inplace=False)
            )
            (drop_path): Identity()
          )
          (24): ConvNeXtBlock(
            (conv_dw): Conv2d(512, 512, kernel_size=(7, 7), stride=(1, 1), padding=(3, 3), groups=512)
            (norm): LayerNorm((512,), eps=1e-06, elementwise_affine=True)
            (mlp): Mlp(
              (fc1): Linear(in_features=512, out_features=2048, bias=True)
              (act): GELU()
              (drop1): Dropout(p=0.0, inplace=False)
              (fc2): Linear(in_features=2048, out_features=512, bias=True)
              (drop2): Dropout(p=0.0, inplace=False)
            )
            (drop_path): Identity()
          )
          (25): ConvNeXtBlock(
            (conv_dw): Conv2d(512, 512, kernel_size=(7, 7), stride=(1, 1), padding=(3, 3), groups=512)
            (norm): LayerNorm((512,), eps=1e-06, elementwise_affine=True)
            (mlp): Mlp(
              (fc1): Linear(in_features=512, out_features=2048, bias=True)
              (act): GELU()
              (drop1): Dropout(p=0.0, inplace=False)
              (fc2): Linear(in_features=2048, out_features=512, bias=True)
              (drop2): Dropout(p=0.0, inplace=False)
            )
            (drop_path): Identity()
          )
          (26): ConvNeXtBlock(
            (conv_dw): Conv2d(512, 512, kernel_size=(7, 7), stride=(1, 1), padding=(3, 3), groups=512)
            (norm): LayerNorm((512,), eps=1e-06, elementwise_affine=True)
            (mlp): Mlp(
              (fc1): Linear(in_features=512, out_features=2048, bias=True)
              (act): GELU()
              (drop1): Dropout(p=0.0, inplace=False)
              (fc2): Linear(in_features=2048, out_features=512, bias=True)
              (drop2): Dropout(p=0.0, inplace=False)
            )
            (drop_path): Identity()
          )
        )
      )
      (3): ConvNeXtStage(
        (downsample): Sequential(
          (0): LayerNorm2d((512,), eps=1e-06, elementwise_affine=True)
          (1): Conv2d(512, 1024, kernel_size=(2, 2), stride=(2, 2))
        )
        (blocks): Sequential(
          (0): ConvNeXtBlock(
            (conv_dw): Conv2d(1024, 1024, kernel_size=(7, 7), stride=(1, 1), padding=(3, 3), groups=1024)
            (norm): LayerNorm((1024,), eps=1e-06, elementwise_affine=True)
            (mlp): Mlp(
              (fc1): Linear(in_features=1024, out_features=4096, bias=True)
              (act): GELU()
              (drop1): Dropout(p=0.0, inplace=False)
              (fc2): Linear(in_features=4096, out_features=1024, bias=True)
              (drop2): Dropout(p=0.0, inplace=False)
            )
            (drop_path): Identity()
          )
          (1): ConvNeXtBlock(
            (conv_dw): Conv2d(1024, 1024, kernel_size=(7, 7), stride=(1, 1), padding=(3, 3), groups=1024)
            (norm): LayerNorm((1024,), eps=1e-06, elementwise_affine=True)
            (mlp): Mlp(
              (fc1): Linear(in_features=1024, out_features=4096, bias=True)
              (act): GELU()
              (drop1): Dropout(p=0.0, inplace=False)
              (fc2): Linear(in_features=4096, out_features=1024, bias=True)
              (drop2): Dropout(p=0.0, inplace=False)
            )
            (drop_path): Identity()
          )
          (2): ConvNeXtBlock(
            (conv_dw): Conv2d(1024, 1024, kernel_size=(7, 7), stride=(1, 1), padding=(3, 3), groups=1024)
            (norm): LayerNorm((1024,), eps=1e-06, elementwise_affine=True)
            (mlp): Mlp(
              (fc1): Linear(in_features=1024, out_features=4096, bias=True)
              (act): GELU()
              (drop1): Dropout(p=0.0, inplace=False)
              (fc2): Linear(in_features=4096, out_features=1024, bias=True)
              (drop2): Dropout(p=0.0, inplace=False)
            )
            (drop_path): Identity()
          )
        )
      )
    )
    (norm_pre): Identity()
    (head): Sequential(
      (global_pool): SelectAdaptivePool2d (pool_type=avg, flatten=Identity())
      (norm): LayerNorm2d((1024,), eps=1e-06, elementwise_affine=True)
      (flatten): Flatten(start_dim=1, end_dim=-1)
      (drop): Dropout(p=0.0, inplace=False)
      (fc): Linear(in_features=1024, out_features=40, bias=True)
    )
  )
  (loss_ce): CrossEntropyLoss()
)
The size of test data is 2468
Traceback (most recent call last):
  File "/home/jupyter/Instruments/P2P/Exp/ModelNet40/p2p_ConvNeXt-B-1k/test.py", line 220, in <module>
    main()
  File "/home/jupyter/Instruments/P2P/Exp/ModelNet40/p2p_ConvNeXt-B-1k/test.py", line 99, in main
    main_worker(args.test_gpu, args.ngpus_per_node, args)
…
